Model: "sequential_1"
_________________________________________________________________
Layer (type)                 Output Shape              Param #   
=================================================================
conv2d_1 (Conv2D)            (None, 400, 301, 64)      1792      
_________________________________________________________________
batch_normalization_1 (Batch (None, 400, 301, 64)      256       
_________________________________________________________________
activation_1 (Activation)    (None, 400, 301, 64)      0         
_________________________________________________________________
conv2d_2 (Conv2D)            (None, 400, 301, 64)      36928     
_________________________________________________________________
batch_normalization_2 (Batch (None, 400, 301, 64)      256       
_________________________________________________________________
activation_2 (Activation)    (None, 400, 301, 64)      0         
_________________________________________________________________
max_pooling2d_1 (MaxPooling2 (None, 200, 151, 64)      0         
_________________________________________________________________
conv2d_3 (Conv2D)            (None, 200, 151, 128)     73856     
_________________________________________________________________
batch_normalization_3 (Batch (None, 200, 151, 128)     512       
_________________________________________________________________
activation_3 (Activation)    (None, 200, 151, 128)     0         
_________________________________________________________________
conv2d_4 (Conv2D)            (None, 200, 151, 128)     147584    
_________________________________________________________________
batch_normalization_4 (Batch (None, 200, 151, 128)     512       
_________________________________________________________________
activation_4 (Activation)    (None, 200, 151, 128)     0         
_________________________________________________________________
max_pooling2d_2 (MaxPooling2 (None, 100, 76, 128)      0         
_________________________________________________________________
conv2d_5 (Conv2D)            (None, 100, 76, 256)      295168    
_________________________________________________________________
batch_normalization_5 (Batch (None, 100, 76, 256)      1024      
_________________________________________________________________
activation_5 (Activation)    (None, 100, 76, 256)      0         
_________________________________________________________________
conv2d_6 (Conv2D)            (None, 100, 76, 256)      590080    
_________________________________________________________________
batch_normalization_6 (Batch (None, 100, 76, 256)      1024      
_________________________________________________________________
activation_6 (Activation)    (None, 100, 76, 256)      0         
_________________________________________________________________
max_pooling2d_3 (MaxPooling2 (None, 50, 38, 256)       0         
_________________________________________________________________
conv2d_7 (Conv2D)            (None, 50, 38, 512)       1180160   
_________________________________________________________________
batch_normalization_7 (Batch (None, 50, 38, 512)       2048      
_________________________________________________________________
activation_7 (Activation)    (None, 50, 38, 512)       0         
_________________________________________________________________
conv2d_8 (Conv2D)            (None, 50, 38, 512)       2359808   
_________________________________________________________________
batch_normalization_8 (Batch (None, 50, 38, 512)       2048      
_________________________________________________________________
activation_8 (Activation)    (None, 50, 38, 512)       0         
_________________________________________________________________
max_pooling2d_4 (MaxPooling2 (None, 25, 19, 512)       0         
_________________________________________________________________
conv2d_9 (Conv2D)            (None, 25, 19, 1024)      4719616   
_________________________________________________________________
batch_normalization_9 (Batch (None, 25, 19, 1024)      4096      
_________________________________________________________________
activation_9 (Activation)    (None, 25, 19, 1024)      0         
_________________________________________________________________
conv2d_10 (Conv2D)           (None, 25, 19, 1024)      9438208   
_________________________________________________________________
batch_normalization_10 (Batc (None, 25, 19, 1024)      4096      
_________________________________________________________________
activation_10 (Activation)   (None, 25, 19, 1024)      0         
_________________________________________________________________
conv2d_11 (Conv2D)           (None, 25, 19, 512)       4719104   
_________________________________________________________________
batch_normalization_11 (Batc (None, 25, 19, 512)       2048      
_________________________________________________________________
activation_11 (Activation)   (None, 25, 19, 512)       0         
_________________________________________________________________
conv2d_12 (Conv2D)           (None, 25, 19, 512)       2359808   
_________________________________________________________________
batch_normalization_12 (Batc (None, 25, 19, 512)       2048      
_________________________________________________________________
activation_12 (Activation)   (None, 25, 19, 512)       0         
_________________________________________________________________
conv2d_transpose_1 (Conv2DTr (None, 50, 38, 512)       1049088   
_________________________________________________________________
conv2d_13 (Conv2D)           (None, 50, 38, 256)       1179904   
_________________________________________________________________
batch_normalization_13 (Batc (None, 50, 38, 256)       1024      
_________________________________________________________________
activation_13 (Activation)   (None, 50, 38, 256)       0         
_________________________________________________________________
conv2d_14 (Conv2D)           (None, 50, 38, 256)       590080    
_________________________________________________________________
batch_normalization_14 (Batc (None, 50, 38, 256)       1024      
_________________________________________________________________
activation_14 (Activation)   (None, 50, 38, 256)       0         
_________________________________________________________________
conv2d_transpose_2 (Conv2DTr (None, 100, 76, 256)      262400    
_________________________________________________________________
conv2d_15 (Conv2D)           (None, 100, 76, 128)      295040    
_________________________________________________________________
batch_normalization_15 (Batc (None, 100, 76, 128)      512       
_________________________________________________________________
activation_15 (Activation)   (None, 100, 76, 128)      0         
_________________________________________________________________
conv2d_16 (Conv2D)           (None, 100, 76, 128)      147584    
_________________________________________________________________
batch_normalization_16 (Batc (None, 100, 76, 128)      512       
_________________________________________________________________
activation_16 (Activation)   (None, 100, 76, 128)      0         
_________________________________________________________________
conv2d_transpose_3 (Conv2DTr (None, 200, 152, 128)     65664     
_________________________________________________________________
conv2d_17 (Conv2D)           (None, 200, 152, 64)      73792     
_________________________________________________________________
batch_normalization_17 (Batc (None, 200, 152, 64)      256       
_________________________________________________________________
activation_17 (Activation)   (None, 200, 152, 64)      0         
_________________________________________________________________
conv2d_18 (Conv2D)           (None, 200, 152, 64)      36928     
_________________________________________________________________
batch_normalization_18 (Batc (None, 200, 152, 64)      256       
_________________________________________________________________
activation_18 (Activation)   (None, 200, 152, 64)      0         
_________________________________________________________________
conv2d_transpose_4 (Conv2DTr (None, 400, 304, 64)      16448     
=================================================================
Total params: 29,662,592
Trainable params: 29,650,816
Non-trainable params: 11,776
_________________________________________________________________
